…
For each ID, label we have 10 realizations of noise
In total, for each batch we have 3000 training examples
Input batch size: 3000
N of batches to cover all file IDs: 60
len(fname_list), batch_size, n_noisy_samples, n_batches: 18000, 3000, 10, 60
------------ DONE ------------
------------ BUILDING MODEL ------------
Input shape (100, 4)
Model: "model"
_________________________________________________________________
Layer (type)                Output Shape              Param #
=================================================================
input_1 (InputLayer)        [(None, 100, 4)]          0
conv1d_flipout (Conv1DFlip  (None, 46, 8)             648
out)
max_pooling1d (MaxPooling1  (None, 23, 8)             0
D)
batch_normalization (Batch  (None, 23, 8)             32
Normalization)
conv1d_flipout_1 (Conv1DFl  (None, 10, 16)            1296
ipout)
max_pooling1d_1 (MaxPoolin  (None, 9, 16)             0
g1D)
batch_normalization_1 (Bat  (None, 9, 16)             64
chNormalization)
conv1d_flipout_2 (Conv1DFl  (None, 8, 32)             2080
ipout)
batch_normalization_2 (Bat  (None, 8, 32)             128
chNormalization)
global_average_pooling1d (  (None, 32)                0
GlobalAveragePooling1D)
dense_flipout (DenseFlipou  (None, 32)                2080
t)
batch_normalization_3 (Bat  (None, 32)                128
chNormalization)
dense_flipout_1 (DenseFlip  (None, 6)                 390
out)
=================================================================
Total params: 6846 (26.74 KB)
Trainable params: 6670 (26.05 KB)
Non-trainable params: 176 (704.00 Byte)
_________________________________________________________________
None
Found GPU at: /device:GPU:0
------------ TRAINING ------------
Features shape: (3000, 100, 4)
Labels shape: (3000, 6)
Initializing checkpoint from scratch.
…
