…
Input batch size: 12000
N of batches to cover all file IDs: 15
len(fname_list), batch_size, n_noisy_samples, n_batches: 18000, 12000, 10, 15
------------ DONE ------------

------------ BUILDING MODEL ------------
Input shape (133, 4)
Model: "model"
_________________________________________________________________
 Layer (type)                Output Shape              Param #   
=================================================================
 input_1 (InputLayer)        [(None, 133, 4)]          0         
                                                                 
 conv1d_flipout (Conv1DFlip  (None, 62, 8)             648       
 out)                                                            
                                                                 
 max_pooling1d (MaxPooling1  (None, 31, 8)             0         
 D)                                                              
                                                                 
 batch_normalization (Batch  (None, 31, 8)             32        
 Normalization)                                                  
                                                                 
 conv1d_flipout_1 (Conv1DFl  (None, 14, 16)            1296      
 ipout)                                                          
                                                                 
 max_pooling1d_1 (MaxPoolin  (None, 13, 16)            0         
 g1D)                                                            
                                                                 
 batch_normalization_1 (Bat  (None, 13, 16)            64        
 chNormalization)                                                
                                                                 
 conv1d_flipout_2 (Conv1DFl  (None, 12, 32)            2080      
 ipout)                                                          
                                                                 
 batch_normalization_2 (Bat  (None, 12, 32)            128       
 chNormalization)                                                
                                                                 
 global_average_pooling1d (  (None, 32)                0         
 GlobalAveragePooling1D)                                         
                                                                 
 dense_flipout (DenseFlipou  (None, 32)                2080      
 t)                                                              
                                                                 
 batch_normalization_3 (Bat  (None, 32)                128       
 chNormalization)                                                
                                                                 
 dense_flipout_1 (DenseFlip  (None, 6)                 390       
 out)                                                            
                                                                 
=================================================================
Total params: 6846 (26.74 KB)
Trainable params: 6670 (26.05 KB)
Non-trainable params: 176 (704.00 Byte)
_________________________________________________________________
None
Found GPU at: /device:GPU:0
…
