…
Expected output dimension of layer conv1d_flipout: 12.0
Expected output dimension of layer max_pooling1d: 6.0
Expected output dimension of layer conv1d_flipout_1: 1.5
Expected output dimension of layer max_pooling1d_1: 0.5
Expected output dimension of layer conv1d_flipout_2: -0.5
Model: "model"
_________________________________________________________________
 Layer (type)                Output Shape              Param #   
=================================================================
 input_1 (InputLayer)        [(None, 32, 4)]           0         
                                                                 
 conv1d_flipout (Conv1DFlip  (None, 16, 8)             648       
 out)                                                            
                                                                 
 max_pooling1d (MaxPooling1  (None, 8, 8)              0         
 D)                                                              
                                                                 
 batch_normalization (Batch  (None, 8, 8)              32        
 Normalization)                                                  
                                                                 
 conv1d_flipout_1 (Conv1DFl  (None, 4, 16)             1296      
 ipout)                                                          
                                                                 
 max_pooling1d_1 (MaxPoolin  (None, 4, 16)             0         
 g1D)                                                            
                                                                 
 batch_normalization_1 (Bat  (None, 4, 16)             64        
 chNormalization)                                                
                                                                 
 conv1d_flipout_2 (Conv1DFl  (None, 4, 32)             2080      
 ipout)                                                          
                                                                 
 batch_normalization_2 (Bat  (None, 4, 32)             128       
 chNormalization)                                                
                                                                 
 global_average_pooling1d (  (None, 32)                0         
 GlobalAveragePooling1D)                                         
                                                                 
 dense_flipout (DenseFlipou  (None, 32)                2080      
 t)                                                              
                                                                 
 batch_normalization_3 (Bat  (None, 32)                128       
 chNormalization)                                                
                                                                 
 dense_flipout_1 (DenseFlip  (None, 6)                 390       
 out)                                                            
                                                                 
