…
len(fname_list), batch_size, n_noisy_samples, n_batches: 6000, 600, 10, 100
------------ DONE ------------

Input shape (203, 4)
------------ BUILDING MODEL ------------

Model n_classes : 6 
Features shape: (203, 4)
Labels shape: (6,)
Model: "model"
_________________________________________________________________
 Layer (type)                Output Shape              Param #   
=================================================================
 input_1 (InputLayer)        [(None, 203, 4)]          0         
                                                                 
 conv1d_flipout (Conv1DFlip  (None, 97, 8)             648       
 out)                                                            
                                                                 
 max_pooling1d (MaxPooling1  (None, 48, 8)             0         
 D)                                                              
                                                                 
 batch_normalization (Batch  (None, 48, 8)             32        
 Normalization)                                                  
                                                                 
 conv1d_flipout_1 (Conv1DFl  (None, 22, 16)            1296      
 ipout)                                                          
                                                                 
 max_pooling1d_1 (MaxPoolin  (None, 21, 16)            0         
 g1D)                                                            
                                                                 
 batch_normalization_1 (Bat  (None, 21, 16)            64        
 chNormalization)                                                
                                                                 
 conv1d_flipout_2 (Conv1DFl  (None, 20, 32)            2080      
 ipout)                                                          
                                                                 
 batch_normalization_2 (Bat  (None, 20, 32)            128       
 chNormalization)                                                
                                                                 
 global_average_pooling1d (  (None, 32)                0         
 GlobalAveragePooling1D)                                         
                                                                 
 dense_flipout (DenseFlipou  (None, 32)                2080      
 t)                                                              
                                                                 
 batch_normalization_3 (Bat  (None, 32)                128       
 chNormalization)                                                
                                                                 
 dense_flipout_1 (DenseFlip  (None, 6)                 390       
 out)                                                            
                                                                 
=================================================================
Total params: 6846 (26.74 KB)
Trainable params: 6670 (26.05 KB)
Non-trainable params: 176 (704.00 Byte)
_________________________________________________________________
None
Computing loss for randomly initialized model...
…
