…
out: Expected output dimension of layer conv1d_flipout: 18.0
out: Expected output dimension of layer max_pooling1d: 9.0
out: Expected output dimension of layer conv1d_flipout_1: 3.0
out: Expected output dimension of layer max_pooling1d_1: 2.0
out: Expected output dimension of layer conv1d_flipout_2: 1.0
out: Model: "model"
out: _________________________________________________________________
out: Layer (type)                Output Shape              Param #
out: =================================================================
out: input_1 (InputLayer)        [(None, 44, 4)]           0
out: conv1d_flipout (Conv1DFlip  (None, 18, 8)             648
out: out)
out: max_pooling1d (MaxPooling1  (None, 9, 8)              0
out: D)
out: batch_normalization (Batch  (None, 9, 8)              32
out: Normalization)
out: conv1d_flipout_1 (Conv1DFl  (None, 3, 16)             1296
out: ipout)
out: max_pooling1d_1 (MaxPoolin  (None, 2, 16)             0
out: g1D)
out: batch_normalization_1 (Bat  (None, 2, 16)             64
out: chNormalization)
out: conv1d_flipout_2 (Conv1DFl  (None, 1, 32)             2080
out: ipout)
out: batch_normalization_2 (Bat  (None, 1, 32)             128
out: chNormalization)
out: global_average_pooling1d (  (None, 32)                0
out: GlobalAveragePooling1D)
out: dense_flipout (DenseFlipou  (None, 32)                2080
out: t)
out: batch_normalization_3 (Bat  (None, 32)                128
out: chNormalization)
out: dense_flipout_1 (DenseFlip  (None, 6)                 390
out: out)
out: =================================================================
out: Total params: 6846 (26.74 KB)
out: Trainable params: 6670 (26.05 KB)
out: Non-trainable params: 176 (704.00 Byte)
out: _________________________________________________________________
out: None
out: Found GPU at: /device:GPU:0
out: ------------ TRAINING ------------
out: Features shape: (3000, 44, 4)
out: Labels shape: (3000, 6)
…
