…
err: untransformed_scale = add_variable_fn(
out: Expected output dimension of layer max_pooling1d: 6.0
out: Expected output dimension of layer conv1d_flipout_1: 1.5
out: Expected output dimension of layer max_pooling1d_1: 0.5
out: Expected output dimension of layer conv1d_flipout_2: -0.5
out: Model: "model"
out: _________________________________________________________________
out: Layer (type)                Output Shape              Param #
out: =================================================================
out: input_1 (InputLayer)        [(None, 32, 4)]           0
out: conv1d_flipout (Conv1DFlip  (None, 16, 8)             648
out: out)
out: max_pooling1d (MaxPooling1  (None, 8, 8)              0
out: D)
out: batch_normalization (Batch  (None, 8, 8)              32
out: Normalization)
out: conv1d_flipout_1 (Conv1DFl  (None, 4, 16)             1296
out: ipout)
out: max_pooling1d_1 (MaxPoolin  (None, 4, 16)             0
out: g1D)
out: batch_normalization_1 (Bat  (None, 4, 16)             64
out: chNormalization)
out: conv1d_flipout_2 (Conv1DFl  (None, 4, 32)             2080
out: ipout)
out: batch_normalization_2 (Bat  (None, 4, 32)             128
out: chNormalization)
out: global_average_pooling1d (  (None, 32)                0
out: GlobalAveragePooling1D)
out: dense_flipout (DenseFlipou  (None, 32)                2080
out: t)
out: batch_normalization_3 (Bat  (None, 32)                128
out: chNormalization)
out: dense_flipout_1 (DenseFlip  (None, 6)                 390
out: out)
out: =================================================================
out: Total params: 6846 (26.74 KB)
out: Trainable params: 6670 (26.05 KB)
out: Non-trainable params: 176 (704.00 Byte)
out: _________________________________________________________________
out: None
out: GPU device not found ! Device:
out: ------------ TRAINING ------------
out: Features shape: (60, 32, 4)
out: Labels shape: (60,)
…
