…
len(fname_list), batch_size, n_noisy_samples, n_batches: 5000, 500, 10, 100
------------ DONE ------------

Input shape (399, 4)
------------ BUILDING MODEL ------------

Model n_classes : 5 
Features shape: (399, 4)
Labels shape: (5,)
Model: "model"
_________________________________________________________________
 Layer (type)                Output Shape              Param #   
=================================================================
 input_1 (InputLayer)        [(None, 399, 4)]          0         
                                                                 
 conv1d_flipout (Conv1DFlip  (None, 195, 8)            648       
 out)                                                            
                                                                 
 max_pooling1d (MaxPooling1  (None, 97, 8)             0         
 D)                                                              
                                                                 
 batch_normalization (Batch  (None, 97, 8)             32        
 Normalization)                                                  
                                                                 
 conv1d_flipout_1 (Conv1DFl  (None, 47, 16)            1296      
 ipout)                                                          
                                                                 
 max_pooling1d_1 (MaxPoolin  (None, 46, 16)            0         
 g1D)                                                            
                                                                 
 batch_normalization_1 (Bat  (None, 46, 16)            64        
 chNormalization)                                                
                                                                 
 conv1d_flipout_2 (Conv1DFl  (None, 45, 32)            2080      
 ipout)                                                          
                                                                 
 batch_normalization_2 (Bat  (None, 45, 32)            128       
 chNormalization)                                                
                                                                 
 global_average_pooling1d (  (None, 32)                0         
 GlobalAveragePooling1D)                                         
                                                                 
 dense_flipout (DenseFlipou  (None, 32)                2080      
 t)                                                              
                                                                 
 batch_normalization_3 (Bat  (None, 32)                128       
 chNormalization)                                                
                                                                 
 dense_flipout_1 (DenseFlip  (None, 5)                 325       
 out)                                                            
                                                                 
=================================================================
Total params: 6781 (26.49 KB)
Trainable params: 6605 (25.80 KB)
Non-trainable params: 176 (704.00 Byte)
_________________________________________________________________
None
Computing loss for randomly initialized model...
…
